…
.block.1.bias', 'embed_out.up_modules.1.1.blocks.1.block.1.weight', 'embed_out.up_modules.1.1.cond_encoder.1.bias', 'embed_out.up_modules.1.1.cond_encoder.1.weight', 'embed_out.up_modules.1.2.conv.bias', 'embed_out.up_modules.1.2.conv.weight']
You should probably TRAIN this model on a down-stream task to be able to use it for predictions and inference.
########################################
########################################
Adding LoRA adapters...
PeftModelForCausalLM(
  (base_model): LoraModel(
    (model): LlavaPythiaForCausalLM(
      (gpt_neox): LLavaPythiaModel(
        (embed_in): Embedding(50304, 512)
        (emb_dropout): Dropout(p=0.0, inplace=False)
        (layers): ModuleList(
          (0-5): 6 x GPTNeoXLayer(
            (input_layernorm): LayerNorm((512,), eps=1e-05, elementwise_affine=True)
            (post_attention_layernorm): LayerNorm((512,), eps=1e-05, elementwise_affine=True)
            (post_attention_dropout): Dropout(p=0.0, inplace=False)
            (post_mlp_dropout): Dropout(p=0.0, inplace=False)
            (attention): GPTNeoXAttention(
              (rotary_emb): GPTNeoXRotaryEmbedding()
              (query_key_value): Linear(
                in_features=512, out_features=1536, bias=True
                (lora_dropout): ModuleDict(
                  (default): Dropout(p=0.05, inplace=False)
                )
                (lora_A): ModuleDict(
                  (default): Linear(in_features=512, out_features=64, bias=False)
                )
                (lora_B): ModuleDict(
                  (default): Linear(in_features=64, out_features=1536, bias=False)
                )
                (lora_embedding_A): ParameterDict()
                (lora_embedding_B): ParameterDict()
              )
              (dense): Linear(
                in_features=512, out_features=512, bias=True
                (lora_dropout): ModuleDict(
                  (default): Dropout(p=0.05, inplace=False)
                )
                (lora_A): ModuleDict(
                  (default): Linear(in_features=512, out_features=64, bias=False)
                )
                (lora_B): ModuleDict(
                  (default): Linear(in_features=64, out_features=512, bias=False)
                )
                (lora_embedding_A): ParameterDict()
                (lora_embedding_B): ParameterDict()
              )
              (attention_dropout): Dropout(p=0.0, inplace=False)
            )
            (mlp): GPTNeoXMLP(
              (dense_h_to_4h): Linear(
                in_features=512, out_features=2048, bias=True
                (lora_dropout): ModuleDict(
                  (default): Dropout(p=0.05, inplace=False)
                )
                (lora_A): ModuleDict(
                  (default): Linear(in_features=512, out_features=64, bias=False)
                )
                (lora_B): ModuleDict(
                  (default): Linear(in_features=64, out_features=2048, bias=False)
                )
                (lora_embedding_A): ParameterDict()
                (lora_embedding_B): ParameterDict()
              )
              (dense_4h_to_h): Linear(
                in_features=2048, out_features=512, bias=True
                (lora_dropout): ModuleDict(
                  (default): Dropout(p=0.05, inplace=False)
                )
                (lora_A): ModuleDict(
                  (default): Linear(in_features=2048, out_features=64, bias=False)
                )
                (lora_B): ModuleDict(
                  (default): Linear(in_features=64, out_features=512, bias=False)
                )
                (lora_embedding_A): ParameterDict()
                (lora_embedding_B): ParameterDict()
              )
              (act): GELUActivation()
            )
          )
        )
        (final_layer_norm): LayerNorm((512,), eps=1e-05, elementwise_affine=True)
        (vision_tower): CLIPVisionTower(
          (vision_model): CLIPVisionTransformer(
            (embeddings): CLIPVisionEmbeddings(
              (patch_embedding): Conv2d(3, 1024, kernel_size=(14, 14), stride=(14, 14), bias=False)
              (position_embedding): Embedding(577, 1024)
            )
            (pre_layrnorm): LayerNorm((1024,), eps=1e-05, elementwise_affine=True)
            (encoder): CLIPEncoder(
              (layers): ModuleList(
                (0-23): 24 x CLIPEncoderLayer(
                  (self_attn): CLIPAttention(
                    (k_proj): Linear(
                      in_features=1024, out_features=1024, bias=True
                      (lora_dropout): ModuleDict(
                        (default): Dropout(p=0.05, inplace=False)
                      )
                      (lora_A): ModuleDict(
                        (default): Linear(in_features=1024, out_features=64, bias=False)
                      )
                      (lora_B): ModuleDict(
                        (default): Linear(in_features=64, out_features=1024, bias=False)
                      )
                      (lora_embedding_A): ParameterDict()
                      (lora_embedding_B): ParameterDict()
                    )
                    (v_proj): Linear(
                      in_features=1024, out_features=1024, bias=True
                      (lora_dropout): ModuleDict(
                        (default): Dropout(p=0.05, inplace=False)
                      )
                      (lora_A): ModuleDict(
                        (default): Linear(in_features=1024, out_features=64, bias=False)
                      )
                      (lora_B): ModuleDict(
                        (default): Linear(in_features=64, out_features=1024, bias=False)
                      )
                      (lora_embedding_A): ParameterDict()
                      (lora_embedding_B): ParameterDict()
                    )
                    (q_proj): Linear(
                      in_features=1024, out_features=1024, bias=True
                      (lora_dropout): ModuleDict(
                        (default): Dropout(p=0.05, inplace=False)
                      )
                      (lora_A): ModuleDict(
                        (default): Linear(in_features=1024, out_features=64, bias=False)
                      )
                      (lora_B): ModuleDict(
                        (default): Linear(in_features=64, out_features=1024, bias=False)
                      )
                      (lora_embedding_A): ParameterDict()
                      (lora_embedding_B): ParameterDict()
                    )
                    (out_proj): Linear(
                      in_features=1024, out_features=1024, bias=True
                      (lora_dropout): ModuleDict(
                        (default): Dropout(p=0.05, inplace=False)
                      )
                      (lora_A): ModuleDict(
                        (default): Linear(in_features=1024, out_features=64, bias=False)
                      )
                      (lora_B): ModuleDict(
                        (default): Linear(in_features=64, out_features=1024, bias=False)
                      )
                      (lora_embedding_A): ParameterDict()
                      (lora_embedding_B): ParameterDict()
                    )
                  )
                  (layer_norm1): LayerNorm((1024,), eps=1e-05, elementwise_affine=True)
                  (mlp): CLIPMLP(
                    (activation_fn): QuickGELUActivation()
                    (fc1): Linear(
                      in_features=1024, out_features=4096, bias=True
                      (lora_dropout): ModuleDict(
                        (default): Dropout(p=0.05, inplace=False)
                      )
                      (lora_A): ModuleDict(
                        (default): Linear(in_features=1024, out_features=64, bias=False)
                      )
                      (lora_B): ModuleDict(
                        (default): Linear(in_features=64, out_features=4096, bias=False)
                      )
                      (lora_embedding_A): ParameterDict()
                      (lora_embedding_B): ParameterDict()
                    )
                    (fc2): Linear(
                      in_features=4096, out_features=1024, bias=True
                      (lora_dropout): ModuleDict(
                        (default): Dropout(p=0.05, inplace=False)
                      )
                      (lora_A): ModuleDict(
                        (default): Linear(in_features=4096, out_features=64, bias=False)
                      )
                      (lora_B): ModuleDict(
                        (default): Linear(in_features=64, out_features=1024, bias=False)
                      )
                      (lora_embedding_A): ParameterDict()
                      (lora_embedding_B): ParameterDict()
                    )
                  )
                  (layer_norm2): LayerNorm((1024,), eps=1e-05, elementwise_affine=True)
                )
              )
            )
            (post_layernorm): LayerNorm((1024,), eps=1e-05, elementwise_affine=True)
          )
        )
        (mm_projector): Sequential(
          (0): Linear(in_features=1024, out_features=512, bias=True)
          (1): GELU(approximate='none')
          (2): Linear(in_features=512, out_features=512, bias=True)
        )
      )
      (proj_to_action): Identity()
      (embed_out): ConditionalUnet1D(
        (global_1d_pool): AdaptiveAvgPool1d(output_size=1)
        (norm_after_pool): LayerNorm((512,), eps=1e-05, elementwise_affine=True)
        (combine): Linear(in_features=519, out_features=512, bias=True)
        (mid_modules): ModuleList(
          (0-1): 2 x ConditionalResidualBlock1D(
            (blocks): ModuleList(
              (0-1): 2 x Conv1dBlock(
                (block): Sequential(
                  (0): Conv1d(1024, 1024, kernel_size=(5,), stride=(1,), padding=(2,))
                  (1): GroupNorm(8, 1024, eps=1e-05, affine=True)
                  (2): Mish()
                )
              )
            )
            (cond_encoder): Sequential(
              (0): Mish()
              (1): Linear(in_features=768, out_features=2048, bias=True)
              (2): Unflatten(dim=-1, unflattened_size=(-1, 1))
            )
            (residual_conv): Identity()
          )
        )
        (diffusion_step_encoder): Sequential(
          (0): SinusoidalPosEmb()
          (1): Linear(in_features=256, out_features=1024, bias=True)
          (2): Mish()
          (3): Linear(in_features=1024, out_features=256, bias=True)
        )
        (up_modules): ModuleList(
          (0): ModuleList(
            (0): ConditionalResidualBlock1D(
              (blocks): ModuleList(
                (0): Conv1dBlock(
                  (block): Sequential(
                    (0): Conv1d(2048, 512, kernel_size=(5,), stride=(1,), padding=(2,))
                    (1): GroupNorm(8, 512, eps=1e-05, affine=True)
                    (2): Mish()
                  )
                )
                (1): Conv1dBlock(
                  (block): Sequential(
                    (0): Conv1d(512, 512, kernel_size=(5,), stride=(1,), padding=(2,))
                    (1): GroupNorm(8, 512, eps=1e-05, affine=True)
                    (2): Mish()
                  )
                )
              )
              (cond_encoder): Sequential(
                (0): Mish()
                (1): Linear(in_features=768, out_features=1024, bias=True)
                (2): Unflatten(dim=-1, unflattened_size=(-1, 1))
              )
              (residual_conv): Conv1d(2048, 512, kernel_size=(1,), stride=(1,))
            )
            (1): ConditionalResidualBlock1D(
              (blocks): ModuleList(
                (0-1): 2 x Conv1dBlock(
                  (block): Sequential(
                    (0): Conv1d(512, 512, kernel_size=(5,), stride=(1,), padding=(2,))
                    (1): GroupNorm(8, 512, eps=1e-05, affine=True)
                    (2): Mish()
                  )
                )
              )
              (cond_encoder): Sequential(
                (0): Mish()
                (1): Linear(in_features=768, out_features=1024, bias=True)
                (2): Unflatten(dim=-1, unflattened_size=(-1, 1))
              )
              (residual_conv): Identity()
            )
            (2): Upsample1d(
              (conv): ConvTranspose1d(512, 512, kernel_size=(4,), stride=(2,), padding=(1,))
            )
          )
          (1): ModuleList(
            (0): ConditionalResidualBlock1D(
              (blocks): ModuleList(
                (0): Conv1dBlock(
                  (block): Sequential(
                    (0): Conv1d(1024, 256, kernel_size=(5,), stride=(1,), padding=(2,))
                    (1): GroupNorm(8, 256, eps=1e-05, affine=True)
                    (2): Mish()
                  )
                )
                (1): Conv1dBlock(
                  (block): Sequential(
                    (0): Conv1d(256, 256, kernel_size=(5,), stride=(1,), padding=(2,))
                    (1): GroupNorm(8, 256, eps=1e-05, affine=True)
                    (2): Mish()
                  )
                )
              )
              (cond_encoder): Sequential(
                (0): Mish()
                (1): Linear(in_features=768, out_features=512, bias=True)
                (2): Unflatten(dim=-1, unflattened_size=(-1, 1))
              )
              (residual_conv): Conv1d(1024, 256, kernel_size=(1,), stride=(1,))
            )
            (1): ConditionalResidualBlock1D(
              (blocks): ModuleList(
                (0-1): 2 x Conv1dBlock(
                  (block): Sequential(
                    (0): Conv1d(256, 256, kernel_size=(5,), stride=(1,), padding=(2,))
                    (1): GroupNorm(8, 256, eps=1e-05, affine=True)
                    (2): Mish()
                  )
                )
              )
              (cond_encoder): Sequential(
                (0): Mish()
                (1): Linear(in_features=768, out_features=512, bias=True)
                (2): Unflatten(dim=-1, unflattened_size=(-1, 1))
              )
              (residual_conv): Identity()
            )
            (2): Upsample1d(
              (conv): ConvTranspose1d(256, 256, kernel_size=(4,), stride=(2,), padding=(1,))
            )
          )
        )
        (down_modules): ModuleList(
          (0): ModuleList(
            (0): ConditionalResidualBlock1D(
              (blocks): ModuleList(
                (0): Conv1dBlock(
                  (block): Sequential(
                    (0): Conv1d(7, 256, kernel_size=(5,), stride=(1,), padding=(2,))
                    (1): GroupNorm(8, 256, eps=1e-05, affine=True)
                    (2): Mish()
                  )
                )
                (1): Conv1dBlock(
                  (block): Sequential(
                    (0): Conv1d(256, 256, kernel_size=(5,), stride=(1,), padding=(2,))
                    (1): GroupNorm(8, 256, eps=1e-05, affine=True)
                    (2): Mish()
                  )
                )
              )
              (cond_encoder): Sequential(
                (0): Mish()
                (1): Linear(in_features=768, out_features=512, bias=True)
                (2): Unflatten(dim=-1, unflattened_size=(-1, 1))
              )
              (residual_conv): Conv1d(7, 256, kernel_size=(1,), stride=(1,))
            )
            (1): ConditionalResidualBlock1D(
              (blocks): ModuleList(
                (0-1): 2 x Conv1dBlock(
                  (block): Sequential(
                    (0): Conv1d(256, 256, kernel_size=(5,), stride=(1,), padding=(2,))
                    (1): GroupNorm(8, 256, eps=1e-05, affine=True)
                    (2): Mish()
                  )
                )
              )
              (cond_encoder): Sequential(
                (0): Mish()
                (1): Linear(in_features=768, out_features=512, bias=True)
                (2): Unflatten(dim=-1, unflattened_size=(-1, 1))
              )
              (residual_conv): Identity()
            )
            (2): Downsample1d(
              (conv): Conv1d(256, 256, kernel_size=(3,), stride=(2,), padding=(1,))
            )
          )
          (1): ModuleList(
            (0): ConditionalResidualBlock1D(
              (blocks): ModuleList(
                (0): Conv1dBlock(
                  (block): Sequential(
                    (0): Conv1d(256, 512, kernel_size=(5,), stride=(1,), padding=(2,))
                    (1): GroupNorm(8, 512, eps=1e-05, affine=True)
                    (2): Mish()
                  )
                )
                (1): Conv1dBlock(
                  (block): Sequential(
                    (0): Conv1d(512, 512, kernel_size=(5,), stride=(1,), padding=(2,))
                    (1): GroupNorm(8, 512, eps=1e-05, affine=True)
                    (2): Mish()
                  )
                )
              )
              (cond_encoder): Sequential(
                (0): Mish()
                (1): Linear(in_features=768, out_features=1024, bias=True)
                (2): Unflatten(dim=-1, unflattened_size=(-1, 1))
              )
              (residual_conv): Conv1d(256, 512, kernel_size=(1,), stride=(1,))
            )
            (1): ConditionalResidualBlock1D(
              (blocks): ModuleList(
                (0-1): 2 x Conv1dBlock(
                  (block): Sequential(
                    (0): Conv1d(512, 512, kernel_size=(5,), stride=(1,), padding=(2,))
                    (1): GroupNorm(8, 512, eps=1e-05, affine=True)
                    (2): Mish()
                  )
                )
              )
              (cond_encoder): Sequential(
                (0): Mish()
                (1): Linear(in_features=768, out_features=1024, bias=True)
                (2): Unflatten(dim=-1, unflattened_size=(-1, 1))
              )
              (residual_conv): Identity()
            )
            (2): Downsample1d(
              (conv): Conv1d(512, 512, kernel_size=(3,), stride=(2,), padding=(1,))
            )
          )
          (2): ModuleList(
            (0): ConditionalResidualBlock1D(
              (blocks): ModuleList(
                (0): Conv1dBlock(
                  (block): Sequential(
                    (0): Conv1d(512, 1024, kernel_size=(5,), stride=(1,), padding=(2,))
                    (1): GroupNorm(8, 1024, eps=1e-05, affine=True)
                    (2): Mish()
                  )
                )
                (1): Conv1dBlock(
                  (block): Sequential(
                    (0): Conv1d(1024, 1024, kernel_size=(5,), stride=(1,), padding=(2,))
                    (1): GroupNorm(8, 1024, eps=1e-05, affine=True)
                    (2): Mish()
                  )
                )
              )
              (cond_encoder): Sequential(
                (0): Mish()
                (1): Linear(in_features=768, out_features=2048, bias=True)
                (2): Unflatten(dim=-1, unflattened_size=(-1, 1))
              )
              (residual_conv): Conv1d(512, 1024, kernel_size=(1,), stride=(1,))
            )
            (1): ConditionalResidualBlock1D(
              (blocks): ModuleList(
                (0-1): 2 x Conv1dBlock(
                  (block): Sequential(
                    (0): Conv1d(1024, 1024, kernel_size=(5,), stride=(1,), padding=(2,))
                    (1): GroupNorm(8, 1024, eps=1e-05, affine=True)
                    (2): Mish()
                  )
                )
              )
              (cond_encoder): Sequential(
                (0): Mish()
                (1): Linear(in_features=768, out_features=2048, bias=True)
                (2): Unflatten(dim=-1, unflattened_size=(-1, 1))
              )
              (residual_conv): Identity()
            )
            (2): Identity()
          )
        )
        (final_conv): Sequential(
          (0): Conv1dBlock(
            (block): Sequential(
              (0): Conv1d(256, 256, kernel_size=(5,), stride=(1,), padding=(2,))
              (1): GroupNorm(8, 256, eps=1e-05, affine=True)
              (2): Mish()
            )
          )
          (1): Conv1d(256, 7, kernel_size=(1,), stride=(1,))
        )
      )
    )
  )
)
default_conversation :
Conversation(system="A chat between a curious user and an artificial intelligence assistant. The assistant gives helpful, detailed, and polite answers to the user's questions.", roles=('USER', 'ASSISTANT'), messages=(), offset=0, sep_style=<SeparatorStyle.TWO: 2>, sep=' ', sep2='<|endoftext|>', version='v0', skip_next=False)
…
